it use 5 Epoch

Model: "sequential"
┏━━━━━━━━━━━━━━━━━━━━━━━━━━━━━━━━━━━━━━┳━━━━━━━━━━━━━━━━━━━━━━━━━━━━━┳━━━━━━━━━━━━━━━━━┓
┃ Layer (type)                         ┃ Output Shape                ┃         Param # ┃
┡━━━━━━━━━━━━━━━━━━━━━━━━━━━━━━━━━━━━━━╇━━━━━━━━━━━━━━━━━━━━━━━━━━━━━╇━━━━━━━━━━━━━━━━━┩
│ conv2d (Conv2D)                      │ (None, 26, 26, 32)          │             320 │
├──────────────────────────────────────┼─────────────────────────────┼─────────────────┤
│ max_pooling2d (MaxPooling2D)         │ (None, 13, 13, 32)          │               0 │
├──────────────────────────────────────┼─────────────────────────────┼─────────────────┤
│ conv2d_1 (Conv2D)                    │ (None, 11, 11, 64)          │          18,496 │
├──────────────────────────────────────┼─────────────────────────────┼─────────────────┤
│ max_pooling2d_1 (MaxPooling2D)       │ (None, 5, 5, 64)            │               0 │
├──────────────────────────────────────┼─────────────────────────────┼─────────────────┤
│ flatten (Flatten)                    │ (None, 1600)                │               0 │
├──────────────────────────────────────┼─────────────────────────────┼─────────────────┤
│ dropout (Dropout)                    │ (None, 1600)                │               0 │
├──────────────────────────────────────┼─────────────────────────────┼─────────────────┤
│ dense (Dense)                        │ (None, 128)                 │         204,928 │
├──────────────────────────────────────┼─────────────────────────────┼─────────────────┤
│ dense_1 (Dense)                      │ (None, 10)                  │           1,290 │
└──────────────────────────────────────┴─────────────────────────────┴─────────────────┘
 Total params: 225,034 (879.04 KB)
 Trainable params: 225,034 (879.04 KB)
 Non-trainable params: 0 (0.00 B)

dropout op1 Model

Compiling model with Adam optimizer...
Epoch 1/5
422/422 ━━━━━━━━━━━━━━━━━━━━ 3s 6ms/step - accuracy: 0.9200 - loss: 0.2614 - val_accuracy: 0.9797 - val_loss: 0.0672
Epoch 2/5
422/422 ━━━━━━━━━━━━━━━━━━━━ 2s 6ms/step - accuracy: 0.9726 - loss: 0.0870 - val_accuracy: 0.9887 - val_loss: 0.0438
…
